models/lgbm_student.tflite (tflite, 20360 bytes, 7 tensors)

arith.constant f4 [128]
000000 b3 4f 92 bf f2 00 3c 3e 8e e3 67 be 23 c0 4f be
       -1.1430572 0.18359736 -0.22645399 -0.20288138
000010 68 b9 43 bd 63 4b 7a be 84 92 10 bf 8b dd 4d be
       -0.04778424 -0.2444282 -0.56473565 -0.20104043
000020 32 9c e2 bf e8 e6 18 be 10 8a 60 bd bd b2 24 be
       -1.7703917 -0.14931834 -0.054819167 -0.16083808
000030 cc 58 80 bc 74 28 7b bd b0 94 bb bd 1f e0 12 3d
       -0.015667342 -0.061317876 -0.09159219 0.03585827
000040 80 7f dc bf eb f5 76 bd bc 3a ba be 16 dd e5 3d
       -1.722641 -0.06029312 -0.36372936 0.112238094
000050 05 88 eb be dc c3 20 be e9 2c 14 bf 9d 72 70 bf
       -0.46002212 -0.15699714 -0.5788103 -0.93924886
000060 28 10 5c bd 35 5e 33 bd 0c 5b 46 be 3d b0 2f 3e
       -0.053726345 -0.043791015 -0.19370669 0.17157073
000070 05 ca f4 be 70 dc d1 3d 32 bc 61 be 2f 28 c0 3d
       -0.4781038 0.10247123 -0.22044447 0.093826644
000080 a9 f5 1f bf 69 5f f0 3b 6c 41 c2 3e 8e 9e 93 3e
       -0.6248422 0.0073355925 0.37940538 0.28831905
000090 67 5d 18 bf 9a e3 cb 3c 01 16 83 bc 3a ae 03 bf
       -0.5951752 0.024888802 -0.016001703 -0.51437724
0000a0 0b d2 90 be 47 a4 50 be 75 83 13 bd b1 87 7b be
       -0.2828525 -0.20375167 -0.03601404 -0.24563481
0000b0 5b fc cd bc d5 ea 6b 3d be f9 e7 3d 37 b7 cf 3c
       -0.025144747 0.057597 0.113269314 0.025355918
0000c0 87 22 93 3b 92 ec c9 3e ef 9e cd be 67 3b 3a be
       0.0044902 0.394383 -0.4016032 -0.18186723
0000d0 85 59 a7 bf 06 37 6f be 0b 1b 2e 3e 56 a9 b1 be
       -1.3074194 -0.23360834 0.17002504 -0.34699506
0000e0 01 1a 7b bf bb 55 11 bf 8d 07 72 bd 52 cc 0c bf
       -0.98086554 -0.5677144 -0.059089232 -0.5499927
0000f0 18 02 aa bf 30 d6 b1 3d 29 9a b4 bf 95 b1 09 bd
       -1.3281889 0.08683431 -1.4109546 -0.03361662
000100 e0 26 34 bf 3b 32 c8 3d 72 86 ab bc 4e 09 03 bf
       -0.7037182 0.09775206 -0.020938132 -0.5118607
000110 03 02 93 be 0f f7 da bf 19 c1 e5 3c 5d 2c c8 bd
       -0.28712472 -1.7106646 0.028046178 -0.097740866
000120 29 29 a2 bf 21 69 bb bf 16 bf 9e be 97 93 01 3d
       -1.2668811 -1.4641458 -0.31005162 0.031634893
000130 a8 6e 40 3e 17 55 a3 3d 1a fd 5c be a5 a2 32 3e
       0.18792212 0.07975214 -0.21580926 0.17444856
000140 0c de b3 3d 2d 27 ec be 20 31 9a 3e 9d bf 46 bf
       0.087825865 -0.4612364 0.30115604 -0.7763613
000150 37 3d e9 3d de 8e 21 bd 32 f5 cc bd 59 5b 4a bd
       0.11388629 -0.03944289 -0.10007705 -0.049403522
000160 c5 08 73 be cd cd cf be 57 91 25 be bd 87 45 bd
       -0.23733814 -0.405867 -0.16168724 -0.048225153
000170 ae 7a f0 be 66 f5 6f be a4 15 b6 bd 75 92 19 3e
       -0.46968597 -0.23433456 -0.08890846 0.14997275
000180 e1 fd 99 bd 67 53 ae bd 4a 39 24 be 6d e1 76 bf
       -0.07519127 -0.085120015 -0.16037479 -0.9643772
000190 7b 01 ac bd 7f f1 8b be 02 1d bf 3d 8d ff 1d be
       -0.0839872 -0.27332684 0.09331705 -0.15429516
0001a0 52 f3 01 bf 3d fc 73 3d ea e2 39 bf bb 90 9a be
       -0.507619 0.059566725 -0.7261187 -0.30188546
0001b0 80 42 30 3d 68 9d 11 bf af 03 f5 be c0 01 18 bf
       0.04303217 -0.5688081 -0.47854373 -0.5937767
0001c0 5d 42 70 bd 38 ea a5 be 67 8d 70 3e 7e 86 3e bf
       -0.05865704 -0.32405257 0.2349144 -0.7442397
0001d0 fa 97 81 bd 2a 00 5d 3e bb 48 e9 be 87 9f 86 bf
       -0.06327815 0.21582094 -0.455633 -1.0517434
0001e0 6f c3 bb be a4 a9 4c be b4 36 d5 bd 08 f2 04 3d
       -0.36672541 -0.19986588 -0.104108244 0.03245738
0001f0 95 b8 2e be 9f 18 87 be 79 ad 02 bf ce a0 10 be
       -0.170626 -0.26385972 -0.5104595 -0.14123842

arith.constant1 f4 [32]
000000 e6 4d 12 bb fe 13 1f bd 8d 6a 36 be 2c 3d bb be
       -0.0022324263 -0.038837425 -0.17814083 -0.36570108
000010 fb f1 99 3d bb 9d 18 bc f2 51 c5 bd c1 8d eb 3e
       0.07516857 -0.00931495 -0.096347705 0.46006587
000020 8f fc 1a 3e f2 ba 8b 3e 9f 37 80 3e 0f 60 04 3c
       0.15135406 0.27291065 0.25042436 0.008079543
000030 7a f7 db 3d bd c1 be 3e b6 5b 8e 3e 0a d5 d9 3b
       0.10740562 0.37257186 0.27804345 0.0066477107
000040 db f3 1f 3e 4e d1 b8 3d 7b 74 c2 3a cd 2d 8c 3e
       0.15620367 0.09024297 0.0014835739 0.27378693
000050 5a 99 7d be 70 d6 de be bb f5 b6 be fb ae c6 3e
       -0.2476553 -0.43522978 -0.35734352 0.38805375
000060 78 5a e1 3d 1c b1 12 bf 10 24 50 3e 90 45 0b bf
       0.11003584 -0.573015 0.20326257 -0.5440302
000070 ae ad cd 3c aa 54 1f 3f a5 d7 2a 3e b8 b3 12 3f
       0.025107231 0.6223856 0.16683824 0.5730548

arith.constant2 f4 [64]
000000 7d 45 f7 3d 70 0d 2a 3e 4f 94 a0 be 8c b4 77 bd
       0.12073801 0.16606688 -0.3136315 -0.060474917
000010 b5 6e a4 3d 9c 24 85 3e 72 9c 15 3e 6a ae 24 be
       0.08028928 0.26004493 0.1461046 -0.16082159
000020 a2 63 99 bd 50 86 eb 3d 9b f2 bf bd d6 bd 92 bc
       -0.074897066 0.115002275 -0.09372445 -0.017912786
000030 65 60 e6 3e 89 96 a0 3e c7 32 ae bd 82 c4 98 3e
       0.44995418 0.3136485 -0.08505779 0.29837424
000040 8c f0 0d bf ab bf 98 3e 0b 14 1a 3e 8c d1 e5 3d
       -0.5544517 0.2983373 0.15046708 0.112216085
000050 ed 30 9c 3d 93 24 a2 3e 86 40 6d be ee 02 ec 3b
       0.07626519 0.3166853 -0.23169145 0.0072024977
000060 b6 60 15 be 3f 36 70 3e 40 a4 a5 3d 83 b2 97 3e
       -0.14587674 0.23458193 0.08087969 0.2962838
000070 fc 71 30 3f a2 fd aa 3d 03 1b 0c 3d 80 5e 58 3e
       0.68923926 0.08349158 0.034205448 0.21129799
000080 f1 f2 39 be 81 63 05 bf 67 49 ae bd 05 15 bc be
       -0.18159081 -0.52104956 -0.08510094 -0.36734787
000090 f2 7c 50 3e 6e cf dc ba 63 17 40 bd 4a d2 e5 bd
       0.20360163 -0.0016846487 -0.046897303 -0.1122175
0000a0 45 10 41 3e 94 64 b5 3e b5 08 9d 3e aa 40 d2 3c
       0.18853863 0.35428298 0.30670705 0.0256656
0000b0 cf ff 04 3f 2a 21 49 3e c2 e7 c3 be a5 6e 84 bd
       0.5195283 0.19641557 -0.38262755 -0.06466416
0000c0 bd b5 8c be da 44 7e 3e f0 0b 4e 3e 8d 5a 31 bf
       -0.27482405 0.24830952 0.20121741 -0.69278795
0000d0 76 0c d1 3d dd 99 15 bd ce 62 85 3e de 4a 8b be
       0.10207455 -0.03652369 0.26051944 -0.27205557
0000e0 76 c7 16 bc c1 8c 0b 3d 82 7f 12 3e f7 5f 06 bc
       -0.009202829 0.03406978 0.14306453 -0.008201591
0000f0 85 f2 65 be ed 51 37 bf e4 3b ef bd 11 65 19 bd
       -0.22455795 -0.71609384 -0.11681345 -0.0374499

arith.constant4 f4 [1, 32]
000000 88 23 96 bd c9 b6 d5 bd 71 3e e2 3e 28 11 99 3e
       -0.07330996 -0.10435254 0.44188264 0.29895902
000010 9f 18 34 be d1 48 cd 3e 95 72 00 3f 53 cc 9d be
       -0.17587517 0.40094617 0.5017484 -0.3081995
000020 f5 35 9b 3e 5a 98 2f be 26 9b 44 bd c9 fd bb 3e
       0.30314603 -0.17147961 -0.047999524 0.3671706
000030 e6 05 e0 3e b3 23 bd bc b1 87 81 be f0 60 48 be
       0.437545 -0.023088312 -0.25298837 -0.19568229
000040 16 8d 00 be 34 60 33 be 83 70 4e be 4a 52 b4 be
       -0.1255382 -0.17517167 -0.20160107 -0.35219032
000050 f1 3e 95 3e a7 18 e7 3e 53 63 cb 3e cf c0 e0 be
       0.29149583 0.45135996 0.39724216 -0.438971
000060 79 86 66 be 77 ca d5 3d d2 56 0e 3f ee 4b e3 3e
       -0.22512235 0.10439008 0.5560123 0.44393867
000070 24 f3 db 3e 7a 0a 83 bd e2 88 86 3e f8 8f f0 bd
       0.4295894 -0.063984826 0.26276308 -0.1174621

tfl.pseudo_qconst i1 [32, 64]
000000 c1 4d 22 0b 14 30 4a 53 e7 cc 1b a7 e2 ff ce ad
       -63 77 34 11 20 48 74 83 -25 -52 27 -89 -30 -1 -50 -83
000010 9d 45 4d 52 12 e6 06 23 0e 9f bf d4 64 20 ff 81
       -99 69 77 82 18 -26 6 35 14 -97 -65 -44 100 32 -1 -127
000020 bd 29 39 b4 13 da aa b2 10 e5 d9 4e 5b fd 24 f2
       -67 41 57 -76 19 -38 -86 -78 16 -27 -39 78 91 -3 36 -14
000030 b8 08 2e d1 3f a6 33 26 42 b1 46 4d 49 40 1e d9
       -72 8 46 -47 63 -90 51 38 66 -79 70 77 73 64 30 -39
000040 51 12 02 da fd 2b f8 cf ed e5 37 18 fe 7f fd bd
       81 18 2 -38 -3 43 -8 -49 -19 -27 55 24 -2 127 -3 -67
000050 e0 65 0c 2c ab 39 38 6e 96 18 72 58 1a 60 58 c4
       -32 101 12 44 -85 57 56 110 -106 24 114 88 26 96 88 -60
000060 1f b9 a8 0f 21 01 b7 27 df 19 d0 fc c1 66 da 1f
       31 -71 -88 15 33 1 -73 39 -33 25 -48 -4 -63 102 -38 31
000070 16 a9 ae d8 47 c7 46 9f b7 b7 fc 4d fd 02 d0 46
       22 -87 -82 -40 71 -57 70 -97 -73 -73 -4 77 -3 2 -48 70
000080 c8 ea 65 0c 7f cf b8 b7 62 ee 2c 19 31 16 fe 4b
       -56 -22 101 12 127 -49 -72 -73 98 -18 44 25 49 22 -2 75
000090 d9 2b e1 db 5d b5 13 31 0d d6 e1 c2 ce 11 c2 31
       -39 43 -31 -37 93 -75 19 49 13 -42 -31 -62 -50 17 -62 49
0000a0 fc 2f 58 23 1b 4c e7 fe c2 18 2e f4 f7 cb 30 20
       -4 47 88 35 27 76 -25 -2 -62 24 46 -12 -9 -53 48 32
0000b0 3f ce d8 11 2b 3a 4b 07 db fa f4 d2 13 60 d9 ca
       63 -50 -40 17 43 58 75 7 -37 -6 -12 -46 19 96 -39 -54
0000c0 39 2e 20 42 7f e4 e4 fe f5 0a bc d6 c9 e2 09 f1
       57 46 32 66 127 -28 -28 -2 -11 10 -68 -42 -55 -30 9 -15
0000d0 43 16 22 e2 3c 3f 11 ea 42 00 ff dc d8 36 f9 d6
       67 22 34 -30 60 63 17 -22 66 0 -1 -36 -40 54 -7 -42
0000e0 dd 79 51 0d 1e f4 ca 12 14 bf 2e c7 34 f0 17 fd
       -35 121 81 13 30 -12 -54 18 20 -65 46 -57 52 -16 23 -3
0000f0 51 03 25 ee dd 21 31 54 3a c2 42 47 26 1c f4 3c
       81 3 37 -18 -35 33 49 84 58 -62 66 71 38 28 -12 60

tfl.pseudo_qconst1 i1 [64, 128]
000000 bf 36 50 df 4b 14 c1 23 36 2b a8 e6 11 d8 25 c8
       -65 54 80 -33 75 20 -63 35 54 43 -88 -26 17 -40 37 -56
000010 fd 5c 24 5d c2 c2 bf dc 14 ef 2f a2 39 fa b2 0d
       -3 92 36 93 -62 -62 -65 -36 20 -17 47 -94 57 -6 -78 13
000020 32 c3 ea e8 fa 37 b5 17 35 1d e3 a1 fe 20 f4 d9
       50 -61 -22 -24 -6 55 -75 23 53 29 -29 -95 -2 32 -12 -39
000030 30 14 2a 28 11 b1 2d be 49 be 5f e8 db e9 cb 3a
       48 20 42 40 17 -79 45 -66 73 -66 95 -24 -37 -23 -53 58
000040 b3 fa 1c f0 e1 f8 e2 c9 db 0a 2a c5 9d 31 c2 46
       -77 -6 28 -16 -31 -8 -30 -55 -37 10 42 -59 -99 49 -62 70
000050 06 1d dc da 3f 10 25 fd d2 bd 0d 14 c5 e3 a6 df
       6 29 -36 -38 63 16 37 -3 -46 -67 13 20 -59 -29 -90 -33
000060 40 07 9f 18 05 81 bc cc ac 4d 42 05 2d e0 db c1
       64 7 -97 24 5 -127 -68 -52 -84 77 66 5 45 -32 -37 -63
000070 07 c8 df cf ad e0 f5 50 c2 0a 4e bd 15 10 cb 27
       7 -56 -33 -49 -83 -32 -11 80 -62 10 78 -67 21 16 -53 39
000080 44 14 c6 3e dc 01 f8 f9 d0 04 3a be 08 e1 4e de
       68 20 -58 62 -36 1 -8 -7 -48 4 58 -66 8 -31 78 -34
000090 20 26 d9 09 d0 0e 15 3e b3 f7 08 fa 2f 10 ca a9
       32 38 -39 9 -48 14 21 62 -77 -9 8 -6 47 16 -54 -87
0000a0 df 97 01 c4 af e1 30 3e 1a 04 e0 25 e6 16 ec 3e
       -33 -105 1 -60 -81 -31 48 62 26 4 -32 37 -26 22 -20 62
0000b0 33 d4 0c 26 17 3a e2 f0 23 0b db a6 b5 42 f8 34
       51 -44 12 38 23 58 -30 -16 35 11 -37 -90 -75 66 -8 52
0000c0 ce c6 26 13 0d d2 fc 21 bf f3 0c 06 50 fe fc d7
       -50 -58 38 19 13 -46 -4 33 -65 -13 12 6 80 -2 -4 -41
0000d0 d7 24 f7 22 1e f9 ce 81 42 e4 f3 6b d9 e9 f3 d1
       -41 36 -9 34 30 -7 -50 -127 66 -28 -13 107 -39 -23 -13 -47
0000e0 f9 ee 22 0a cf f9 71 43 e5 d1 0b bd 3b 19 10 e8
       -7 -18 34 10 -49 -7 113 67 -27 -47 11 -67 59 25 16 -24
0000f0 f5 e7 1d ab 16 2a 4b c4 39 ce b1 20 e8 3e 39 db
       -11 -25 29 -85 22 42 75 -60 57 -50 -79 32 -24 62 57 -37

sequential_3_1/dense_10_1/MatMul i1 [128, 30]
000000 06 04 f0 8d 05 e5 e9 c3 d3 09 b3 f4 28 bf c7 f8
       6 4 -16 -115 5 -27 -23 -61 -45 9 -77 -12 40 -65 -57 -8
000010 81 0f d6 b8 c4 fc ff ee 0d 00 02 0a 14 ed c5 57
       -127 15 -42 -72 -60 -4 -1 -18 13 0 2 10 20 -19 -59 87
000020 4c e6 e4 1f ee 14 0a 13 fe 56 43 d6 26 01 cd 7a
       76 -26 -28 31 -18 20 10 19 -2 86 67 -42 38 1 -51 122
000030 06 02 25 33 d4 05 e1 0f f4 f3 7f fa a9 0b b6 81
       6 2 37 51 -44 5 -31 15 -12 -13 127 -6 -87 11 -74 -127
000040 09 f9 ce 97 9e f4 bd cc 04 ad 8e f0 8f 44 ae 91
       9 -7 -50 -105 -98 -12 -67 -52 4 -83 -114 -16 -113 68 -82 -111
000050 c0 2e d4 ff 0e 12 27 f7 17 04 ef f8 1c da 10 e4
       -64 46 -44 -1 14 18 39 -9 23 4 -17 -8 28 -38 16 -28
000060 0f 10 f4 13 fe 37 04 12 23 05 81 16 13 2b 19 46
       15 16 -12 19 -2 55 4 18 35 5 -127 22 19 43 25 70
000070 fc fc ed ff 1c 0b 0d 00 f3 2b 03 e1 fb 08 81 fb
       -4 -4 -19 -1 28 11 13 0 -13 43 3 -31 -5 8 -127 -5
000080 09 23 01 ff 1f 01 d6 f8 13 2a dd f1 f1 22 01 2a
       9 35 1 -1 31 1 -42 -8 19 42 -35 -15 -15 34 1 42
000090 16 ff 27 ee 37 df 1d 3b db ae 02 8a ff 9e 1c 1a
       22 -1 39 -18 55 -33 29 59 -37 -82 2 -118 -1 -98 28 26
0000a0 01 1b 3d 95 81 00 d9 62 12 87 22 c6 f3 d8 1d 00
       1 27 61 -107 -127 0 -39 98 18 -121 34 -58 -13 -40 29 0
0000b0 e8 0f 53 eb 0a 4b f1 cb f8 0e 81 ce da 07 e0 d9
       -24 15 83 -21 10 75 -15 -53 -8 14 -127 -50 -38 7 -32 -39
0000c0 39 ba d8 f8 24 1c e8 c3 cf 27 01 fc fa 0f 56 f6
       57 -70 -40 -8 36 28 -24 -61 -49 39 1 -4 -6 15 86 -10
0000d0 0f f8 36 7f f0 c0 09 0d d6 c1 f4 11 82 30 26 e6
       15 -8 54 127 -16 -64 9 13 -42 -63 -12 17 -126 48 38 -26
0000e0 8e 08 a9 07 00 d9 1c 4d f8 02 fb 04 1f ff 44 dc
       -114 8 -87 7 0 -39 28 77 -8 2 -5 4 31 -1 68 -36
0000f0 e8 1a ec 8b 03 0a e2 c4 17 2b 01 12 5b c7 c4 fa
       -24 26 -20 -117 3 10 -30 -60 23 43 1 18 91 -57 -60 -6
